checkpoint.pth (torch_old, 28335 bytes, 6 tensors)

fc1.weight f4 [64, 37]
-0.03148219 -0.025462033 -0.08087306 -0.1621271 -0.35307077 -0.020669552 0.016909005 0.109237075
0.13802569 0.15832181 0.026458018 -0.3114514 -0.045707755 -0.12632549 -0.087759584 -0.14777337
0.09840156 0.074704 0.039432663 -0.42838836 0.19661425 -0.004540525 -0.17513636 0.12363687
-0.00263589 0.045095917 0.2762773 -0.21119928 -0.2106427 -0.068084575 0.014361985 -0.068494484
-0.0807983 -0.15501717 -0.40118155 -0.043963373 0.009300689 0.18969603 -0.07190156 0.05100118
0.09423194 -0.17599003 0.17283474 -0.34486014 -0.29626262 0.009791743 -0.084986396 -0.106786326
-0.021772414 0.107059 0.054523617 0.23620874 0.052956384 -0.16884083 0.14260091 0.10139818
-0.17601906 0.011901316 -0.08854316 -0.13625805 -0.15694696 -0.16662766 0.03885837 0.108211935
-0.011582324 -0.1559335 -0.21312109 -0.020422129 0.16225865 0.18387055 -0.041344095 0.005824543
-0.06372286 0.001804356 -0.14379154 0.14505109 0.07809121 0.09326384 -0.026156403 -0.13088247
-0.4763275 0.26845247 -0.01570067 -0.09865417 -0.15243347 0.09668237 0.029582035 0.024983749
0.13307294 -0.020976488 -0.073533624 0.060723875 0.1282415 0.18829289 -0.32125428 -0.1579777
0.16948792 0.22176494 -0.4161878 -0.25730196 0.029584149 0.20824659 -0.10773904 -0.07376875
-0.16879913 -0.16752857 -0.07699014 -0.12728675 -0.027599629 0.013257542 -0.031210108 0.06895846
0.05879263 0.046105955 -0.11919966 -0.54396194 -0.20139405 0.111342266 0.012652237 0.21645898
-0.11027727 0.17017262 -0.13517809 -0.13627082 -0.18879043 -0.26469678 0.027642768 -0.23380406
-0.08082415 -0.52248085 -0.4140165 0.19266078 -0.13463056 -0.45968482 0.12520975 -0.35507146
0.079736315 0.035032578 -0.012805063 -0.23688848 0.22147062 -0.019071396 0.23498178 0.11727099
-0.4885983 -0.4351574 -0.024433922 -0.025897918 -0.07711152 -0.018529246 -0.050154857 -0.008318031
0.045997422 0.41443723 -0.65461457 -0.66836077 -0.63723266 -2.0164213 -0.022406448 0.048578285
-0.005907404 0.0142080365 0.024480153 -0.018978672 -0.006593529 0.013347181 0.08334691 0.07034544
0.037486553 0.033820443 0.07620108 0.026799833 0.04783017 0.10200587 0.17466438 0.113746084
0.033992626 -0.18932886 0.10259333 0.059344962 0.11467334 0.15782635 0.07492148 0.00029542492
0.0024310732 0.015521715 -0.048111044 0.09950478 -0.045338854 0.038197182 0.30457002 0.14032786
-0.18007486 -0.5659164 -1.446235 0.053054355 -0.065856926 -0.018710362 -0.04306518 -0.00148115
0.05280628 0.0502697 -0.015676891 -0.042876262 0.011477708 0.07921813 0.057297155 0.112201944
0.1219141 0.16690367 0.033722058 -0.019793482 0.077323996 0.04589797 0.21061252 0.030132169
-0.028713975 0.024149874 -0.038246375 -0.11266521 -0.018961724 0.009345905 -0.010461469 0.03163998
-0.020132108 0.07090117 0.0028818166 0.099930726 -0.37765655 0.05458125 -0.2085613 -0.17450102
0.032064494 -0.041500796 0.08607699 0.14698845 0.009034414 0.00082144985 -0.19544071 -0.06227847
-0.018001445 0.20305522 -0.064519 -0.13460886 0.02705009 0.027599566 -0.09225984 0.006033534
-0.21396181 -0.024703616 -0.20897144 0.03366074 0.05331481 0.052181482 -0.18230966 -0.09553543
00000000: 78f3 00bd c195 d0bc c6a0 a5bd a604 26be
00000010: b1c5 b4be 3153 a9bc c184 8a3c b0b7 df3d
00000020: 9b56 0d3e 1d1f 223e 7cbe d83c 8f76 9fbe
00000030: 0e38 3bbd 785b 01be 4cbb b3bd e751 17be
00000040: c286 c93d 69fe 983d 2584 213d b855 dbbe
00000050: 3f55 493e afc8 94bb f256 33be 5435 fd3d
00000060: e5be 2cbb 7fb6 383d 3874 8d3e a044 58be
00000070: b8b2 57be ed6f 8bbd 884e 6b3c d646 8cbd
00000080: 9479 a5bd d2bc 1ebe ab67 cdbe f012 34bd
00000090: eb61 183c ad3f 423e 2041 93bd 9de6 503d
000000a0: adfc c03d bb36 34be 97fb 303e 8291 b0be
000000b0: bcaf 97be 8c6d 203c 590d aebd cab2 dabd
000000c0: 105c b2bc c041 db3d 2854 5f3d b4e0 713e
000000d0: cbe8 583d 9ce4 2cbe f905 123e d9a9 cf3d
000000e0: 573e 34be bdfd 423c 1e56 b5bd 3b87 0bbe
000000f0: b4b6 20be 71a0 2abe f429 1f3d 389e dd3d
00000100: cac3 3dbc 08ad 1fbe 6a3c 5abe 4f4c a7bc
00000110: 2227 263e 9048 3c3e 6d58 29bd cfdb be3b
00000120: 2181 82bd 2480 ec3a 173e 13be 4688 143e
00000130: 49ee 9f3d 1d01 bf3d f445 d6bc 0e06 06be
00000140: 33e1 f3be 9a72 893e b19e 80bc 330b cabd
00000150: 8517 1cbe 6801 c63d 0656 f23c b8aa cc3c
00000160: 4644 083e e2d6 abbc cc98 96bd 99b9 783d
00000170: bd51 033e dacf 403e 717b a4be e8c4 21be
00000180: 3e8e 2d3e 5916 633e 9116 d5be 15bd 83be
00000190: 755a f23c 983e 553e 49a6 dcbd 1214 97bd
000001a0: aed9 2cbe 9c8c 2bbe 02ad 9dbd 7557 02be
000001b0: 9e18 e2bc 2936 593c 57ac ffbc 183a 8d3d
000001c0: 8ad0 703d 99d9 3c3d f41e f4bd 1741 0bbf
000001d0: 3e3a 4ebe 6a07 e43d 544b 4f3c 6ca7 5d3e
000001e0: 0dd9 e1bd bb41 2e3e 206c 0abe 948a 0bbe
000001f0: 4752 41be 5686 87be 1673 e23c 556a 6fbe
00000200: 2287 a5bd 4ec1 05bf f8f9 d3be de48 453e
00000210: 98dc 09be cf5b ebbe fc36 003e edcb b5be
00000220: cb4c a33d 527e 0f3d 54cc 51bc e592 72be
00000230: 32c9 623e 9e3b 9cbc 109f 703e c62b f03d
00000240: 8e29 fabe f3cc debe a629 c8bc df27 d4bc
00000250: a5ec 9dbd a5ca 97bc 2e6f 4dbd 5a48 08bc
00000260: cb67 3c3d 1e31 d43e d294 27bf b119 2bbf
00000270: ae21 23bf 0c0d 01c0 ba8d b7bc 06fa 463d
00000280: e592 c1bb d3c8 683c 9a8a c83c 2979 9bbc
00000290: 880e d8bb 22ae 5a3c c9b1 aa3d 4511 903d
000002a0: 808b 193d 4e87 0a3d 500f 9c3d 538b db3c
000002b0: 91e9 433d 74e8 d03d 38db 323e b5f3 e83d
000002c0: da3b 0b3d 6ddf 41be 741c d23d b413 733d
000002d0: dbd9 ea3d 3b9d 213e 6f70 993d 43e3 9a39
000002e0: a452 1f3b cb4e 7e3c 1610 45bd 29c9 cb3d
000002f0: 3cb5 39bd a674 1c3d 9af0 9b3e 1bb2 0f3e
00000300: 8b65 38be e6df 10bf 3a1e b9bf 864f 593d
00000310: ffdf 86bd 7946 99bc 1d65 30bd 2623 c2ba
00000320: 664b 583d 9ae7 4d3d d36c 80bc 059f 2fbd
00000330: ff0c 3c3c 1d3d a23d 6cb0 6a3d 22ca e53d
00000340: 1aae f93d cce8 2a3e 2420 0a3d f125 a2bc
00000350: 0b5c 9e3d 83ff 3b3d cfaa 573e bdd7 f63c
00000360: 9239 ebbc f5d5 c53c 3ba8 1cbd 05bd e6bd
00000370: 9e55 9bbc 911f 193c 9566 2bbc ec98 013d
00000380: 17ec a4bc a234 913d dcdc 3c3b 7ba8 cc3d
00000390: 335c c1be 9790 5f3d 1891 55be 65b0 32be
000003a0: 0f56 033d bdfc 29bd 2249 b03d 2484 163e
000003b0: 1405 143c 9156 573a 9c21 48be b517 7fbd
000003c0: c477 93bc b5ed 4f3e 8a22 84bd e8d6 09be
000003d0: 2698 dd3c 7c18 e23c baf2 bcbd f4b4 c53b
000003e0: ce18 5bbe 3d5f cabc 9cfc 55be d8df 093d
000003f0: a160 5a3d 40bc 553d 62af 3abe 14a8 c3bd

fc1.bias f4 [64]
0.13587384 -0.058047865 -0.15767449 -0.06675105 0.26407194 0.010333132 -0.11599474 0.07940647
0.06028344 -0.1461309 0.14082165 0.13064907 0.054206137 0.055149868 -0.07561984 -0.036310572
0.06836745 -0.06367168 0.029909397 -0.18211053 -0.040013894 0.06260087 0.038511913 -0.08075027
-0.2593638 0.16575518 -0.061890177 -0.22132954 0.10703996 0.10016183 -0.026552826 -0.18437798
0.13766856 0.07060167 -0.14658123 0.074839145 -0.05582428 0.028462922 -0.016448533 -0.13009511
-0.12381718 0.0638018 -0.20601131 0.1971308 -0.010762998 -0.11074164 0.014714518 -0.15092552
-0.11180469 0.033400808 -0.16855465 0.033060987 -0.041445974 -0.0428441 -0.23330851 0.009903803
0.022152552 -0.015007101 -0.07577797 -0.007851137 -0.005852416 0.051594798 0.03557801 0.02056261
00000000: 8322 0b3e 99c3 6dbd 6c75 21be c6b4 88bd
00000010: 7034 873e 4c4c 293c a68e edbd dc9f a23d
00000020: c5eb 763d 57a3 15be 8d33 103e dfc8 053e
00000030: 4107 5e3d d4e4 613d 93de 9abd 65ba 14bd
00000040: 3c04 8c3d 4c66 82bd 8d04 f53c 2f7b 3abe
00000050: 9ce5 23bd e334 803d abbe 1d3d 6660 a5bd
00000060: 55cb 84be babb 293e 8e80 7dbd 36a4 62be
00000070: c437 db3d a521 cd3d 5085 d9bc 95cd 3cbe
00000080: fdf8 0c3e 9c97 903d 6419 16be 4445 993d
00000090: 00a8 64bd 132b e93c 13bf 86bc a737 05be
000000a0: dd93 fdbd 85aa 823d a1f4 52be a8dc 493e
000000b0: 4957 30bc 83cc e2bd 2915 713c 388c 1abe
000000c0: dbf9 e4bd 49cf 083d 9799 2cbe f56a 073d
000000d0: 41c3 29bd 4c7d 2fbd 6de8 6ebe 8f43 223c
000000e0: 4579 b53c 58e0 75bc 7b31 9bbd 0ea2 00bc
000000f0: a0c5 bfbb 1155 533d 3fba 113d eb72 a83c

fc2.weight f4 [64, 64]
0.207701 -0.06819654 0.18683596 0.46105736 0.081029676 -0.35536933 -0.053992677 0.06347193
0.057899315 0.23434657 -0.01937116 -0.2863022 -0.107525714 0.25739947 -0.07564697 -0.018218018
-0.11907409 -0.5827997 0.031138724 0.33455387 -0.21743092 -0.058030788 -0.15168223 0.17649171
-0.38107383 -0.34893036 0.49765912 -0.43884793 0.13422029 -0.011667564 -0.09334154 -0.4801962
0.087360114 0.11227649 -0.23262839 -0.17674007 -0.15513317 0.3552199 -0.06268362 -0.19825768
-0.31941321 -0.06625013 -0.16512124 -0.0051192953 -0.21337225 -0.4057494 -0.25966644 -0.15142258
-0.1757644 -0.19944166 -0.46371058 0.065051176 -0.30548823 -0.3598374 0.09600118 0.04253122
0.14876536 0.010338947 -0.31227195 0.20372654 -0.116545744 0.06976461 0.018096743 0.35122624
0.030597605 0.1551278 -0.11422659 0.069785334 0.3577751 0.11253113 0.02257157 0.017538378
-0.010591636 0.009862573 0.079870254 0.2778736 -0.038672004 0.10138074 -0.1250608 0.14006189
0.082661785 0.03062419 -0.082534194 0.003486438 0.09431427 0.01734795 0.20040214 0.08916966
0.028613243 0.14289328 -0.16368984 -0.022286104 0.08624798 0.17762774 -0.050035402 -0.23004901
-0.06188658 0.10367911 0.1075697 0.0144601995 -0.0033248244 0.2830651 0.18696508 -0.022866212
0.18580355 0.31516296 0.021266336 0.046212688 -0.0568105 -0.005963171 -0.026648501 -0.01713524
-0.06970691 0.057651814 0.054721948 0.121003486 -0.025637368 0.2053423 -0.53789943 0.08710818
-0.1248505 0.10460385 0.17521022 -0.07139977 0.012318028 0.071414806 -0.32449535 -0.39148763
-0.048714686 -0.19152354 -0.10088391 -0.03288647 0.12688956 0.07394639 -5.228736e-05 -0.094305396
0.07571505 -0.01847996 0.025223725 -0.15991697 0.054633282 0.0955007 -0.090309195 -0.20020421
0.00041961257 0.19215271 0.06695685 -0.008587751 -0.08868598 -0.12852669 0.036871545 -0.03671299
-0.08690868 0.08136337 0.11367264 0.016466016 -0.09542307 0.49726257 -0.04677265 0.041511185
-0.06135537 0.087571055 -0.039921854 0.17886478 -0.046778403 -0.2119346 0.1586637 -0.117051885
0.18863794 -0.20017862 0.06681341 -0.11856236 -0.012599693 0.02124756 0.10925008 -0.12313658
0.122292176 -0.08003725 -0.050878245 0.05801804 -0.077077895 -0.06706421 -0.27504548 -0.039101563
-0.19568989 0.13368727 0.16629411 0.029154154 -0.02020792 -0.0634046 -0.06766488 0.0816748
0.015629876 -0.33364445 0.23316486 -0.25942037 -0.18155146 -0.040170845 -0.37059975 0.02958974
-0.06618448 -0.070317626 -0.22552015 -0.1124974 0.004075579 0.14494343 0.054257978 -0.12107087
-0.10643063 0.014737445 0.11299657 -0.07532837 0.024083793 0.051889632 -0.16250972 0.34300813
0.20807353 -0.12089792 0.15201707 -0.4707256 0.4184234 -0.16512312 -0.118238255 -0.4746698
0.02365878 0.045146536 -0.26650962 -0.05340811 -0.26531547 0.18578301 0.028508926 -0.15516192
0.13225017 0.09991531 0.09881569 -0.091766335 -0.18077408 -0.3659705 -0.1631657 0.06513509
-0.114521265 0.08626646 -0.29617682 -0.03067916 -0.057067305 0.10152594 -0.1976956 0.04678747
-0.29230323 -0.02937717 -0.1700554 0.3521468 -0.23656242 0.23888288 -0.35577807 -0.24103478
00000000: 92af 543e a1aa 8bbd ed51 3f3e b60f ec3e
00000010: e3f2 a53d f8f2 b5be 6d27 5dbd 92fd 813d
00000020: d527 6d3d 8cf8 6f3e 44b0 9ebc 3496 92be
00000030: 7136 dcbd ddc9 833e ccec 9abd f43d 95bc
00000040: 1edd f3bd 5c32 15bf a316 ff3c a54a ab3e
00000050: 36a6 5ebe b1b1 6dbd 9652 1bbe 3eba 343e
00000060: 1c1c c3be 00a7 b2be 2dcd fe3e adb0 e0be
00000070: 0b71 093e 4f29 3fbc d929 bfbd 47dc f5be
00000080: dce9 b23d 37f1 e53d 2336 6ebe 59fb 34be
00000090: 3bdb 1ebe 62df b53e 4560 80bd 1004 4bbe
000000a0: 218a a3be 26ae 87bd 8b15 29be c3bf a7bb
000000b0: 417e 5abe 63be cfbe 00f3 84be 850e 1bbe
000000c0: 95fb 33be 6f3a 4cbe 796b edbe 8d39 853d
000000d0: f468 9cbe 9c3c b8be 449c c43d 3735 2e3d
000000e0: f255 183e b064 293c 1ce2 9fbe b19d 503e
000000f0: 89af eebd bfe0 8e3d 9f3f 943c edd3 b33e
00000100: d4a7 fa3c d2d9 1e3e a1ef e9bd 9deb 8e3d
00000110: 4c2e b73e b976 e63d 03e8 b83c a5ac 8f3c
00000120: 8b88 2dbc a196 213c 0493 a33d 7345 8e3e
00000130: 8966 1ebd b5a0 cf3d f00f 00be 626c 0f3e
00000140: 954a a93d 95df fa3c b007 a9bd b97c 643b
00000150: d727 c13d 4a1d 8e3c 3836 4d3e 959e b63d
00000160: 5266 ea3c 9e52 123e 4f9e 27be 5991 b6bc
00000170: c8a2 b03d 0ce4 353e ecf1 4cbd f891 6bbe
00000180: c87c 7dbd b755 d43d 814d dc3d 79ea 6c3c
00000190: 4ce5 59bb e9ed 903e c673 3f3e ec51 bbbc
000001a0: 4943 3e3e 0a5d a13e bd36 ae3c 8449 3d3d
000001b0: 20b2 68bd b466 c3bb f54d dabc 345f 8cbc
000001c0: 7fc2 8ebd 4f24 6c3d 1f24 603d add0 f73d
000001d0: 7505 d2bc 4045 523e c7b3 09bf c665 b23d
000001e0: 9eb1 ffbd 8b3a d63d 4f6a 333e 0b3a 92bd
000001f0: 8ed1 493c ed41 923d 4124 a6be 1171 c8be
00000200: 0d89 47bd bf1e 44be 399c cebd f7b3 06bd
00000210: 56ef 013e 3471 973d 204f 5bb8 3023 c1bd
00000220: 7e10 9b3d 4963 97bc fca1 ce3c 46c1 23be
00000230: 26c7 5f3d df95 c33d 07f4 b8bd 5502 4dbe
00000240: 72ff db39 aec3 443e ac20 893d a3b3 0cbc
00000250: ffa0 b5bd 809c 03be 9e06 173d 5c60 16bd
00000260: 2efd b1bd d7a1 a63d 33cd e83d bde3 863c
00000270: 2c6d c3bd 3399 fe3e ae94 3fbd a207 2a3d
00000280: c54f 7bbd 7458 b33d 1985 23bd 5428 373e
00000290: b69a 3fbd 6205 59be bd78 223e e6b8 efbd
000002a0: 4e2a 413e a0fb 4cbe 78d5 883d d3d0 f2bd
000002b0: f16e 4ebc 5d0f ae3c 82be df3d 082f fcbd
000002c0: 5274 fa3d 92ea a3bd b565 50bd 53a4 6d3d
000002d0: 04db 9dbd f658 89bd c3d2 8cbe f628 20bd
000002e0: ee62 48be 51e5 083e 0149 2a3e b1d4 ee3c
000002f0: 148b a5bc 45da 81bd e293 8abd 1e45 a73d
00000300: 3a0a 803c 72d3 aabe c5c2 6e3e bfd2 84be
00000310: a0e8 39be 2f8a 24bd 40bf bdbe 2f66 f23c
00000320: bb8b 87bd b002 90bd c1ee 66be 0965 e6bd
00000330: 6f8c 853b 0d6c 143e 9d3d 5e3d 01f4 f7bd
00000340: 4df8 d9bd 5375 713c bf6a e73d c345 9abd
00000350: 604b c53c 398a 543d f368 26be c39e af3e
00000360: 3a11 553e 5499 f7bd 5daa 1b3e f202 f1be
00000370: 983b d63e 0916 29be e626 f2bd ec07 f3be
00000380: 0fd0 c13c 93eb 383d f373 88be 76c2 5abd
00000390: 6ed7 87be e73d 3e3e 8d8b e93c c4e2 1ebe
000003a0: 976c 073e 66a0 cc3d e15f ca3d fdef bbbd
000003b0: d71c 39be 7c60 bbbe e914 27be 8c65 853d
000003c0: 208a eabd 78ac b03d 7da4 97be dd52 fbbc
000003d0: 68bf 69bd d5ec cf3d b770 4abe 38a4 3f3d
000003e0: c5a8 95be 64a8 f0bc 0123 2ebe 964c b43e
000003f0: 6b3d 72be b79d 743e 8b28 b6be d2d1 76be

fc2.bias f4 [64]
0.016369818 0.14091 0.14748311 0.016712314 0.32092708 -0.24599677 -0.12978637 0.03739859
0.13996686 0.36387 0.027238043 0.20902629 0.26972127 -0.12237875 0.02769346 0.20484178
0.026294442 -0.07314542 0.011434842 0.12341365 0.013274355 0.36332896 -0.098253146 -0.14263701
0.032690797 -0.086915314 0.10102862 0.009326927 -0.07817686 0.26214975 -0.092436016 -0.03997628
0.028116059 0.11903416 0.03281799 -0.0009911569 0.03101475 -0.13773203 0.4080713 -0.0383308
0.04656144 0.45530698 0.16344652 0.025785513 0.07896848 -0.061172236 0.23581098 -0.013411316
0.059710473 -0.17072216 -0.1991089 0.29192725 -0.042654663 -0.19611134 0.2010765 -0.12826264
-0.12637563 -0.077930704 -0.03064733 0.0003060957 0.14121972 0.22692211 0.084652856 -0.054608084
00000000: ff19 863c b64a 103e d005 173e 43e8 883c
00000010: 8e50 a43e 94e6 7bbe b8e6 04be 442f 193d
00000020: 7953 0f3e 2b4d ba3e 5122 df3c fd0a 563e
00000030: e818 8a3e b6a1 fabd 65dd e23c 0bc2 513e
00000040: 7167 d73c 44cd 95bd 3459 3b3c 4cc0 fc3d
00000050: ae7c 593c 4106 ba3e f238 c9bd 700f 12be
00000060: c9e6 053d a800 b2bd 18e8 ce3d f8cf 183c
00000070: 311b a0bd 7e38 863e 184f bdbd 2bbe 23bd
00000080: a653 e63c 2fc8 f33d 286c 063d b5e9 81ba
00000090: a512 fe3c a009 0dbe b9ee d03e c200 1dbd
000000a0: 35b7 3e3d ff1d e93e 865e 273e 243c d33c
000000b0: 3aba a13d bd8f 7abd 6f78 713e 23bb 5bbc
000000c0: f892 743d cad1 2ebe 34e3 4bbe 7d77 953e
000000d0: a8b6 2ebd 69d1 48be ffe6 4d3e 4857 03be
000000e0: 9d68 01be 229a 9fbd 1c10 fbbc 787b a039
000000f0: e79b 103e 455e 683e 7a5e ad3d baac 5fbd

fc3.weight f4 [4, 64]
-0.19732112 0.24023637 0.17818531 -0.45701745 0.160361 -0.14970978 0.0630342 -0.3223361
0.22115207 0.09925791 -0.049444195 0.25514105 0.16970386 -0.13385312 0.33585563 0.111635655
0.14213403 0.12389371 0.23938689 0.16187832 0.17527196 0.19115247 -0.11178047 -0.2755874
-0.3213001 -0.088350736 -0.031959865 -0.44756734 0.28222322 0.11194322 -0.24369168 0.090923004
0.14684215 0.33630347 0.05959498 0.38677394 0.11223477 -0.0731119 0.2100231 0.4099462
-0.21807484 0.16180521 0.13800554 0.095447004 0.06668559 0.13725951 0.18136248 0.37356818
0.5558041 0.45547986 -0.36411732 0.3322964 0.24201791 -0.09831933 0.121427864 -0.1369644
-0.42721006 0.18794522 0.16101328 0.059967007 -0.5279874 0.16125375 0.07412096 0.26078194
0.057065275 0.11105501 0.13966595 -0.015672885 0.2396553 -0.10991634 0.0025249654 -0.029492965
0.09557096 0.10990699 0.11737287 0.18334697 0.14346445 -0.059505537 0.3444468 0.20370689
0.13533351 0.07317057 0.4228279 0.13690318 0.34808 0.24540345 -0.16841108 -0.17227682
-0.07371736 -0.12439631 0.027623225 0.10896817 -0.46979818 0.17021279 -0.14834964 0.29543105
0.12957922 0.25260836 0.14601249 0.45542443 0.08319469 -0.07818168 0.1695026 0.3517542
-0.14355089 0.1755954 0.12727201 0.1964634 0.1256445 0.0010543743 0.14883092 0.32456288
0.39464444 0.018910406 -0.28401643 0.17867084 0.44608554 -0.19633316 0.1192905 -0.06747496
0.018894231 -0.16745546 0.31699553 0.20762767 -0.15687826 -0.039066628 0.08157487 0.278613
-0.43246448 0.16901892 0.18738039 0.5913146 0.18210344 -0.2299462 0.15786383 0.24782993
0.16172297 0.104916684 0.22373135 0.20751643 0.28478223 -0.31760952 0.1637849 0.2922945
0.14823492 0.01788877 0.5924237 0.08538307 0.14317907 0.35026386 -0.26680994 0.07580348
-0.013140142 -0.51499045 0.3401474 -0.29105297 0.5512671 0.15864846 -0.14905663 -0.0095694205
-0.037759762 0.12806262 0.2851088 0.6182795 0.031235125 -0.115781076 0.21483506 -0.09398659
0.12625915 0.12239704 0.276335 0.09600624 0.11718887 -0.061009675 0.13229923 0.18870218
0.4924315 -0.35654536 -0.3663412 0.347478 0.17858468 0.03520442 0.099844374 0.26482898
-0.18668067 -0.36356175 -0.40598783 -0.13999508 -0.27753454 0.14857529 -0.35508427 0.20656024
0.3423952 0.16675273 0.016766846 0.15668106 0.17513052 -0.18584248 -0.15846913 0.056485526
0.19793184 0.18843709 0.2520137 0.057142686 0.28751352 -0.049214438 0.35450792 0.14630865
0.36719856 0.36173448 0.16392875 0.17318863 0.2833386 0.27777642 -0.12387602 0.094182655
0.08021533 -0.039217968 0.051753316 -0.20462562 0.24462605 0.026716022 -0.38698727 0.25593776
0.0060050944 0.037825312 0.13948989 -0.21613689 0.016683575 0.039074045 0.20285514 0.44211626
-0.23533222 0.22894453 0.23574339 -0.09857654 0.28589463 -0.062219754 0.12094536 0.278316
0.10006281 -0.19595243 -0.10011773 0.1945909 0.49029216 -0.49415514 0.23463368 0.22673382
-0.28292683 0.22657977 0.18875663 -0.1164102 -0.23861046 0.056936275 -0.069185756 0.500423
00000000: 8c0e 4abe 8600 763e 3676 363e 31fe e9be
00000010: ad35 243e 854d 19be 1318 813d 3d09 a5be
00000020: b075 623e bb47 cb3d ff85 4abd d9a1 823e
00000030: d9c6 2d3e cb10 09be 45f5 ab3e 3ca1 e43d
00000040: 958b 113e fcbb fd3d d621 753e 6ec3 253e
00000050: 7e7a 333e 79bd 433e 29ed e4bd cb19 8dbe
00000060: 7281 a4be 3bf1 b4bd 59e8 02bd 8c27 e5be
00000070: 907f 903e 7d42 e53d 508a 79be d735 ba3d
00000080: ca5d 163e f82f ac3e de19 743d 3c07 c63e
00000090: 58db e53d b1bb 95bd 4c10 573e 78e4 d13e
000000a0: 034f 5fbe 44b0 253e 5351 0d3e b879 c33d
000000b0: 7492 883d c28d 0c3e 16b7 393e 5444 bf3e
000000c0: 2d49 0e3f a834 e93e 966d babe c122 aa3e
000000d0: 8bd3 773e a55b c9bd 2caf f83d 6540 0cbe
000000e0: 47bb dabe b674 403e aae0 243e f79f 753d
000000f0: 2f2a 07bf b41f 253e bbcc 973d 3685 853e
00000100: 47bd 693d cf70 e33d 9704 0f3e 6c64 80bc
00000110: 3368 753e d11b e1bd e479 253b 3b9b f1bc
00000120: b5ba c33d ea16 e13d 3061 f03d 4fbf 3b3e
00000130: 58e8 123e 14bc 73bd 555b b03e 8a98 503e
00000140: de94 0a3e 74da 953d e67c d83e 5930 0c3e
00000150: 8b37 b23e 0b4b 7b3e f473 2cbe 5669 30be
00000160: 21f9 96bd 7ec3 febd 1a4a e23c b42a df3d
00000170: 6389 f0be 434c 2e3e f8e8 17be bd42 973e
00000180: 6ab0 043e e255 813e 4c84 153e 642d e93e
00000190: fa61 aa3d b71d a0bd 1792 2d3e 2019 b43e
000001a0: 01ff 12be 48cf 333e 9853 023e b42d 493e
000001b0: f4a8 003e ee32 8a3a 2267 183e 1b2d a63e
000001c0: d60e ca3e ffe9 9a3c 9a6a 91be 7df5 363e
000001d0: 5365 e43e 8f0b 49be 944e f43d 5030 8abd
000001e0: 13c8 9a3c 7279 2bbe 3d4d a23e 599c 543e
000001f0: b2a4 20be 5404 20bd ba10 a73d 5da6 8e3e
00000200: fc6b ddbe 4c13 2d3e a5e0 3f3e 6560 173f
00000210: 5379 3a3e 0477 6bbe 0ea7 213e 21c7 7d3e
00000220: b59a 253e 8fde d63d d519 653e 307f 543e
00000230: face 913e b79d a2be 3bb7 273e a0a7 953e
00000240: e5ca 173e 788b 923c 14a9 173f 52dd ae3d
00000250: 899d 123e c955 b33e 509b 88be db3e 9b3d
00000260: c049 57bc 6ad6 03bf cd27 ae3e e504 95be
00000270: d71f 0d3f be74 223e 4da2 18be 0fc9 1cbc
00000280: fba9 1abd d922 033e c8f9 913e 9147 1e3f
00000290: cee0 ff3c a11e edbd b9fd 5b3e 0b7c c0bd
000002a0: 144a 013e 4dab fa3d c87b 8d3e eb9e c43d
000002b0: b800 f03d 48e5 79bd 7379 073e 253b 413e
000002c0: fb1f fc3e 1d8d b6be 1391 bbbe a3e8 b13e
000002d0: e7de 363e 8332 103d 357b cc3d aa97 873e
000002e0: 3829 3fbe c424 babe a3dd cfbe df5a 0fbe
000002f0: 0219 8ebe 1f24 183e 9bcd b5be 8784 533e
00000300: 6c4e af3e 3ac1 2a3e a05a 893c 0071 203e
00000310: 6a55 333e 7e4d 3ebe bb45 22be 5e5d 673d
00000320: a5ae 4a3e a7f5 403e f107 813e 730e 6a3d
00000330: f934 933e 1495 49bd 1082 b53e efd1 153e
00000340: 7301 bc3e 4335 b93e f0dc 273e 5c58 313e
00000350: c211 913e b638 8e3e b6b2 fdbd d6e2 c03d
00000360: ef47 a43d 05a3 20bd 49fb 533d 6189 51be
00000370: 407f 7a3e 8fdb da3c 3223 c6be 460a 833e
00000380: 62c6 c43b b7ee 1a3d 70d6 0e3e fd52 5dbe
00000390: feab 883c 1b0c 203d 42b9 4f3e 105d e23e
000003a0: eefa 70be 6f70 6a3e b766 713e 7fe2 c9bd
000003b0: c860 923e 24da 7ebd 33b2 f73d 6f7f 8e3e
000003c0: bbed cc3d c1a7 48be 860a cdbd d642 473e
000003d0: 9307 fb3e e701 fdbe d043 703e e92c 683e
000003e0: c9db 90be 8704 683e 6b49 413e 7968 eebd
000003f0: 4d56 74be 0336 693d 43b1 8dbd b91b 003f

fc3.bias f4 [4]
0.2528328 0.24946524 0.08966452 0.17134733
00000000: 4d73 813e d173 7f3e 08a2 b73d ad75 2f3e
